LunarLander-v2_weights.pth (torch, 21783 bytes, 6 tensors)

fc1.weight f4 [64, 8]
-1.0373083 1.477408 -0.16851734 -0.26764113 -0.0331677 -0.22383194 0.32463583 -0.8208485
0.30496174 0.023911763 1.8948094 0.27057254 -0.6455548 0.5702159 0.0012833694 0.4876711
-0.66674113 -0.4262538 -0.8732393 0.8936505 0.58220404 0.28390962 0.34582517 0.8215389
-0.12368199 0.09187845 -0.065597504 0.014775989 3.163632 -0.0025548192 -0.19543199 -0.20413692
-0.364962 -0.29773402 -0.54245585 0.90604347 -0.87892485 1.0737437 0.41428116 0.37987494
1.3295383 -0.05616988 0.7970659 0.3999105 1.5051548 -0.11855582 -1.7162998 1.1219012
-0.29111132 -0.9541399 -0.6218493 -1.2416972 1.3347424 0.485981 0.4500471 -0.254511
-1.0257485 0.3344288 0.034591738 1.1160783 -1.1020043 0.23724335 0.37404978 -0.009916988
-0.013986862 -0.8436079 -0.6726102 -1.5229992 0.68505234 0.79824215 0.047613278 -0.08455956
0.49521336 1.1080173 -0.129096 -1.1932294 0.26837564 0.65039307 -0.2765617 -1.4266
-0.62263477 -1.9086677 -0.9379969 0.23942682 0.35224858 0.2988607 -0.69955087 -0.07690713
-0.030749828 0.2654128 -0.732275 0.865366 0.7629351 0.7656155 -1.5058619 -0.29027978
-0.4205197 0.8637277 -0.9193003 1.0499359 0.46396652 0.8435867 0.07289744 0.016342936
-1.088706 0.41947734 2.419587 0.8175726 -1.4316863 0.12859687 0.15372728 0.061704904
0.38075238 -5.1926894 -0.42996758 0.12237392 -0.38000685 0.7581414 0.022338672 0.45936581
1.2995024 -1.5099704 0.6201668 -0.363075 0.43302056 -0.37422097 -0.64518416 -0.22640766
-0.3615036 0.0025958335 -0.5343375 0.17378506 -0.60678834 -1.6112986 -0.020641338 0.4931773
-0.098800026 -0.2661776 -0.57935387 -0.12500048 0.060907565 1.2884195 0.20196305 -1.0450577
-0.27306363 -0.35509762 -0.3601128 -0.5438344 0.6073578 0.3746295 0.4981713 -1.2147864
-0.006030649 -0.5411251 -1.3697667 -0.24705878 -0.44545022 -0.46860635 0.6865302 -0.15910801
0.21239485 -0.9368627 -0.14736201 -0.55459386 0.006578936 -0.31826347 -0.4892488 0.5336232
-0.019175915 -0.47933644 -0.44935694 -0.9136375 0.44936794 0.69705904 0.24951473 0.3243459
1.8013902 -1.5804727 0.34009072 -1.0847907 -0.69860566 -0.15727314 0.15809943 -0.048604522
0.26663142 0.83788544 0.6367845 -0.19965231 0.04567953 0.56748086 0.03688464 -0.13274537
0.2068496 -0.18312347 0.36485246 -0.04571452 -0.8648669 -0.24251167 0.44828245 0.58934665
0.61523664 -0.0155924205 0.15404594 -0.49134603 0.117888086 -0.5339478 -0.59093034 -0.35891253
0.23641796 0.11491093 1.9745893 1.5693717 -1.0101161 0.35229847 0.38538912 0.40180075
-0.163214 1.2469987 0.9563738 0.1307409 0.03700344 0.3251987 -1.1272342 -0.29949582
-0.089163154 0.40861258 -1.1300709 -1.184034 -1.8478259 0.26971102 0.035402883 0.4111492
0.032044016 -0.11209682 -2.5845566 -1.8983891 -0.041273892 0.37492555 0.6187865 0.14140217
-0.31289402 0.09988488 1.1712097 0.2755462 0.44530126 0.8779681 0.3092365 -1.1036755
0.05969418 -0.06349603 0.20827149 1.9112653 -0.34753978 -0.06396722 0.4132249 0.6531256
00000000: 85c6 84bf b51b bd3f cf8f 2cbe 4208 89be
00000010: dbda 07bd 3334 65be ab36 a63e 2123 52bf
00000020: f223 9c3e 9ae2 c33c 1d89 f23f 7c88 8a3e
00000030: 1443 25bf abf9 113f bb36 a83a 07b0 f93e
00000040: 8caf 2abf f03d dabe 9c8c 5fbf 47c6 643f
00000050: 530b 153f 9a5c 913e ff0f b13e 6050 523f
00000060: fc4c fdbd c52a bc3d fc57 86bd fd16 723c
00000070: f278 4a40 c16e 27bb 531f 48be 4509 51be
00000080: 4ddc babe 9870 98be 63de 0abf 77f2 673f
00000090: 3801 61bf 6f70 893f a91c d43e f87e c23e
000000a0: 502e aa3f 6312 66bd 830c 4c3f 12c1 cc3e
000000b0: eaa8 c03f 65cd f2bd b6af dbbf 759a 8f3f
000000c0: 8b0c 95be 8342 74bf 8431 1fbf efef 9ebf
000000d0: d7d8 aa3f 80d2 f83e 936c e63e 444f 82be
000000e0: ba4b 83bf 403a ab3e 11b0 0d3d a7db 8e3f
000000f0: 7a0e 8dbf ecef 723e 7483 bf3e dd7a 22bc
00000100: 2729 65bc b0f6 57bf 2f30 2cbf a3f1 c2bf
00000110: 975f 2f3f 9959 4c3f 2406 433d 902d adbd
00000120: 9b8c fd3e 83d3 8d3f be31 04be bebb 98bf
00000130: 8868 893e 2980 263f 7f99 8dbe d49a b6bf
00000140: fe64 1fbf 394f f4bf 9120 70bf 4e2c 753e
00000150: ed59 b43e 4504 993e c415 33bf 7c81 9dbd
00000160: 10e7 fbbc 30e4 873e 6076 3bbf a088 5d3f
00000170: b74f 433f 61ff 433f 15c0 c0bf 8d9f 94be
00000180: 5c4e d7be 421d 5d3f 4457 6bbf 4d64 863f
00000190: 058d ed3e 4cf5 573f 414b 953d 9fe1 853c
000001a0: b85a 8bbf bcc5 d63e 83da 1a40 704c 513f
000001b0: 7f41 b7bf e6ae 033e af6a 1d3e 48be 7c3d
000001c0: faf1 c23e 832a a6c0 b624 dcbe 2e9f fa3d
000001d0: 4290 c2be 8e15 423f 97ff b63c ff31 eb3e
000001e0: 1856 a63f b646 c1bf 40c3 1e3f f7e4 b9be
000001f0: dfb4 dd3e e499 bfbe ca2a 25bf 69d7 67be
00000200: 0017 b9be dc1e 2a3b 58ca 08bf b6f4 313e
00000210: 7b56 1bbf 083f cebf 0618 a9bc bc81 fc3e
00000220: ab57 cabd 6e48 88be 8950 14bf 2000 00be
00000230: 367a 793d eeea a43f 67cf 4e3e 73c4 85bf
00000240: ffce 8bbe 5bcf b5be b460 b8be bb38 0bbf
00000250: cd7b 1b3f 70cf bf3e 4f10 ff3e 1f7e 9bbf
00000260: c09c c5bb 2d87 0abf 8454 afbf fafc 7cbe
00000270: 0d12 e4be 2ced efbe 71c0 2f3f 36ed 22be
00000280: 097e 593e 3cd6 6fbf 11e6 16be ddf9 0dbf
00000290: 1d94 d73b 6ef3 a2be d27e fabe 889b 083f
000002a0: cf16 9dbc 966b f5be 1d12 e6be 26e4 69bf
000002b0: 8e13 e63e 7672 323f ca80 7f3e aa10 a63e
000002c0: f493 e63f ee4c cabf 5f20 ae3e 6cda 8abf
000002d0: d2d7 32bf 360c 21be d1e4 213e 8915 47bd
000002e0: ea83 883e a97f 563f 4f04 233f a871 4cbe
000002f0: 751a 3b3d 6d46 113f 5914 173d 67ee 07be
00000300: 62d0 533e b884 3bbe f1cd ba3e 263f 3bbd
00000310: eb67 5dbf fb54 78be 4785 e53e 6cdf 163f
00000320: 2680 1d3f 5a77 7fbc 38be 1d3e b591 fbbe
00000330: 4f6f f13d ceb0 08bf 3647 17bf 62c3 b7be
00000340: 8d17 723e 6c56 eb3d 58bf fc3f 2ce1 c83f
00000350: 7c4b 81bf 7760 b43e b951 c53e d4b8 cd3e
00000360: 9221 27be a79d 9f3f ead4 743f f1e0 053e
00000370: eb90 173d 7280 a63e 3649 90bf 8457 99be
00000380: 2c9b b6bd ab35 d13e 2aa6 90bf 6d8e 97bf
00000390: 8f85 ecbf 9017 8a3e 9d02 113d 2682 d23e
000003a0: 9640 033d 0493 e5bd 6069 25c0 6afe f2bf
000003b0: d00e 29bd 3ef6 bf3e cb68 1e3f bbcb 103e
000003c0: a533 a0be 7290 cc3d 33ea 953f 6414 8d3e
000003d0: 87fe e33e 84c2 603f 3f54 9e3e 3d45 8dbf
000003e0: e281 743d 350a 82bd 1f45 553e 57a4 f43f
000003f0: bcf0 b1be 3f01 83bd 3792 d33e 3d33 273f

fc1.bias f4 [64]
0.820268 -0.46516907 -0.37383375 -0.13555594 -0.4211009 0.096624546 -0.22902928 -0.26488498
-0.40802032 0.13428159 -0.3173733 0.38229257 0.21775223 0.007402943 0.686545 -0.10842374
-0.100129925 -0.19671725 -0.16150121 -0.098633505 0.51878744 -0.08686686 -0.19362447 0.48461273
0.10074911 -0.7970667 -0.7803736 -0.22143468 -0.16219564 0.03086025 -0.3911073 0.007859102
0.38599387 -0.29007214 -0.0366729 0.00297856 -0.17538077 -0.27445048 0.015579989 0.16011864
0.6816077 -0.105025575 -0.025364967 -0.076805875 -0.4991728 -0.34861624 -0.18924223 0.06964084
-0.4983752 0.5806548 0.17332554 0.9189503 -0.007454163 0.8624322 -0.10905376 0.20719725
0.41739774 -0.044881076 -0.061295602 0.69493526 0.25365725 -0.46310437 -0.3493332 -0.37932816
00000000: 15fd 513f a42a eebe 2367 bfbe 2dcf 0abe
00000010: 8a9a d7be 17e3 c53d a786 6abe 019f 87be
00000020: 0ae8 d0be 1d81 093e c17e a2be dabb c33e
00000030: 71fa 5e3e 6394 f23b 6ac1 2f3f 440d debd
00000040: eb10 cdbd 3f70 49be 9360 25be 5d00 cabd
00000050: 41cf 043f 41e7 b1bd 7e45 46be 291f f83e
00000060: 8d55 ce3d 900c 4cbf 90c6 47bf c6bf 62be
00000070: 9d16 26be a3ce fc3c 373f c8be 77c3 003c
00000080: fda0 c53e 5684 94be 5336 16bd f233 433b
00000090: 0497 33be c684 8cbe 3643 7f3c 24f6 233e
000000a0: d87d 2e3f a617 d7bd 31ca cfbc 664c 9dbd
000000b0: 9493 ffbe d47d b2be b7c8 41be db9f 8e3d
000000c0: 092b ffbe cba5 143f 407c 313e 5440 6b3f
000000d0: 0d42 f4bb 5bc8 5c3f 9457 dfbd 842b 543e
000000e0: 28b5 d53e 38d5 37bd 1911 7bbd 47e7 313f
000000f0: 5ddf 813e 041c edbe cddb b2be 4d37 c2be

fc2.weight f4 [64, 64]
-0.31663883 0.18832152 -0.8770451 0.2785819 -0.81972444 0.24343826 -0.8450481 -1.5697331
-0.97201943 -1.3900994 -0.44807386 -0.7793416 -0.66373456 -1.0690389 0.47705093 -0.3569509
0.47728404 0.039615795 0.25591853 0.6664205 0.5675816 0.33758596 -0.99250835 -0.19257379
0.41716832 -0.070458524 -1.0380398 -1.3395733 -0.2868529 0.32472116 -0.7548183 -1.795665
0.24916182 -0.13317788 -2.1919675 0.27235654 -2.6585336 -1.3632087 0.74852645 -3.3405142
1.356462 -0.8598986 0.678996 0.18202636 0.0117342835 0.60511756 0.08357462 -0.08397246
0.5202504 0.5363918 -0.6251105 0.904585 0.7948276 -0.20349704 -2.2265632 -0.02965876
-0.51889694 0.011105709 -0.65813184 0.39761344 -1.5113884 -0.47539383 -0.103715494 -0.7739113
-0.18548143 0.019301875 -0.13863093 0.087450564 0.09639978 0.03331384 -0.06926344 0.03396338
0.049902093 -0.004170628 -0.021654315 0.06748827 -0.14867395 0.018472802 -0.098623194 -0.09162031
-0.067741565 0.07778543 -0.057221245 -0.019318499 -0.02436609 -0.01947305 -0.105774306 -0.028891023
-0.12878689 0.025509242 -0.14462215 -0.16642322 -0.120078154 -0.03338302 -0.008956305 -0.05923663
0.005325453 -0.07921496 0.03924104 -0.12186585 0.026741762 0.048693504 -0.07717483 0.0006149161
-0.08255534 -0.14355789 0.0003569989 -0.104136415 -0.039780475 -0.040368672 -0.006714856 0.0579622
-0.07788748 0.019096226 -0.09219645 0.061531376 0.04807684 -0.038912263 -0.06649393 -0.17225403
-0.034820676 -0.10614204 0.06462585 0.003613126 -0.080149986 0.026768712 -0.017419888 -0.1060506
0.07812719 1.7508444 0.43265286 -2.9722486 -0.19203024 1.0345303 -0.86178386 -2.4748347
-0.5201973 -0.9061449 0.31968588 -1.9371334 -0.9941035 0.55062866 -1.6955848 0.91189253
0.19727227 -2.020628 -0.7315384 0.015729697 0.4377288 0.42145777 0.8432984 -0.099360265
0.88241726 0.39150795 1.6515441 -1.6667014 0.073054045 -0.9904516 -0.88447964 -0.36821085
0.813984 0.9218708 0.14706048 0.9361935 -1.4358547 -0.21712942 0.5558602 0.96947706
-0.23982641 -0.7117052 0.8068024 0.40833625 0.20461011 0.5656891 0.33788237 0.21005188
-1.8602271 0.49666038 -0.30562377 -0.82219934 0.9743172 -0.6645367 0.54821104 -0.42076802
-0.40515596 0.48227233 -2.196812 0.18735456 -0.38415518 1.7305856 1.1276032 0.28098586
0.7274323 -0.35592967 -2.682621 2.8256197 -3.1066813 -0.9122136 -0.2945568 -0.055652715
-0.0764369 1.6569164 0.62825805 0.64410424 0.08863816 0.5945211 -3.2898245 2.2491348
0.53909427 -1.8913639 -0.7424967 0.1150286 -2.2976542 -0.298546 0.48580456 0.9351683
-1.0610931 -2.2254868 -0.21007195 1.1132075 0.77525264 1.685509 -0.45280516 1.5854056
0.10013137 0.7100496 0.45408416 1.1790316 -0.018349104 0.5191346 -1.4214333 -0.054940872
-4.346907 1.7215252 -0.31620768 -0.03790637 0.2784843 -0.66330284 -2.1840167 1.002746
-3.8734972 -2.8891904 0.9032948 -1.6828091 -3.1323676 0.74638915 -0.22682083 3.553139
0.52892566 0.57948625 3.2326756 0.15927637 1.0527798 0.75261045 -1.1148207 -0.45209375
00000000: 7c1e a2be 5bd7 403e 0786 60bf 49a2 8e3e
00000010: 76d9 51bf e147 793e 1355 58bf 04ed c8bf
00000020: 44d6 78bf c7ee b1bf f069 e5be ee82 47bf
00000030: 82ea 29bf 44d6 88bf 0540 f43e 45c2 b6be
00000040: 935e f43e 2c44 223d c107 833e 899a 2a3f
00000050: 074d 113f 11d8 ac3e 0715 7ebf 1032 45be
00000060: 1697 d53e 8f4c 90bd 7dde 84bf 2377 abbf
00000070: 62de 92be da41 a63e c63b 41bf 5ad8 e5bf
00000080: 4724 7f3e c85f 08be 3249 0cc0 5172 8b3e
00000090: 6a25 2ac0 9f7d aebf 6e9f 3f3f fcca 55c0
000000a0: 8ca0 ad3f 5122 5cbf afd2 2d3f 1e65 3a3e
000000b0: 2741 403c fce8 1a3f 2c29 ab3d c1f9 abbd
000000c0: 212f 053f f950 093f 3e07 20bf e292 673f
000000d0: d279 4b3f 8761 50be 0380 0ec0 eef6 f2bc
000000e0: 6ed6 04bf b8f4 353c 547b 28bf fd93 cb3e
000000f0: 2d75 c1bf d266 f3be ca68 d4bd 0d1f 46bf
00000100: d8ee 3dbe f71e 9e3c 44f5 0dbe 4819 b33d
00000110: 3f6d c53d 1874 083d fed9 8dbd 2f1d 0b3d
00000120: 2366 4c3d c3a9 88bb 6464 b1bc 4a37 8a3d
00000130: fc3d 18be 4654 973c f5fa c9bd 6ea3 bbbd
00000140: 17bc 8abd f84d 9f3d d360 6abd d441 9ebc
00000150: 659b c7bc f285 9fbc 33a0 d8bd deac ecbc
00000160: b6e0 03be c2f8 d03c d417 14be d96a 2abe
00000170: 89eb f5bd a2bc 08bd 77bd 12bc 1ca2 72bd
00000180: 2381 ae3b 743b a2bd 36bb 203d ce94 f9bd
00000190: 8a11 db3c d772 473d d60d 9ebd 5232 213a
000001a0: c612 a9bd d700 13be 952b bb39 7945 d5bd
000001b0: daf0 22bd 9f59 25bd 4b08 dcbb c669 6d3d
000001c0: 7983 9fbd b06f 9c3c 7ed1 bcbd 5308 7c3d
000001d0: 38ec 443d 7762 1fbd f82d 88bd 5c63 30be
000001e0: 20a0 0ebd ff60 d9bd 8f5a 843d 32ca 6c3b
000001f0: ad25 a4bd 0f4a db3c 27b4 8ebc 0f31 d9bd
00000200: 2601 a03d ab1b e03f ad84 dd3e 5239 3ec0
00000210: 93a3 44be 7d6b 843f de9d 5cbf b163 1ec0
00000220: a62b 05bf 1df9 67bf dead a33e fdf3 f7bf
00000230: 917d 7ebf 00f6 0c3f ec08 d9bf ca71 693f
00000240: be01 4a3e f851 01c0 1a46 3bbf 91db 803c
00000250: fd1d e03e 50c9 d73e 67e2 573f 657d cbbd
00000260: 19e6 613f bb73 c83e cc65 d33f 7956 d5bf
00000270: 5c9d 953d 3c8e 7dbf 426d 62bf 2286 bcbe
00000280: 4161 503f baff 6b3f 0697 163e 61aa 6f3f
00000290: 16ca b7bf 2d57 5ebe db4c 0e3f a62f 783f
000002a0: 0e95 75be 5032 36bf 9a8a 4e3f 7311 d13e
000002b0: 5085 513e 00d1 103f ebfe ac3e d717 573e
000002c0: ec1b eebf 454a fe3e b87a 9cbe a87b 52bf
000002d0: da6c 793f 141f 2abf 8f57 0c3f e86e d7be
000002e0: 9a70 cfbe 66ec f63e 9198 0cc0 e0d9 3f3e
000002f0: fdaf c4be d483 dd3f 4d55 903f 61dd 8f3e
00000300: 0139 3a3f 6a3c b6be 10b0 2bc0 f4d6 3440
00000310: ded3 46c0 d586 69bf 26d0 96be 1af4 63bd
00000320: f38a 9cbd d615 d43f 85d5 203f 04e4 243f
00000330: ec87 b53d 8932 183f 7c8c 52c0 d3f1 0f40
00000340: 1502 0a3f 3618 f2bf 4414 3ebf 1d94 eb3d
00000350: c40c 13c0 05db 98be 60bb f83e 3167 6f3f
00000360: e6d1 87bf 606e 0ec0 1a1d 57be 957d 8e3f
00000370: f576 463f c2be d73f 14d6 e7be 92ee ca3f
00000380: ad11 cd3d d0c5 353f b87d e83e 82ea 963f
00000390: dc50 96bc 01e6 043f 87f1 b5bf ae09 61bd
000003a0: dd19 8bc0 f05a dc3f f9e5 a1be b643 1bbd
000003b0: 7f95 8e3e 37ce 29bf eec6 0bc0 fb59 803f
000003c0: 61e7 77c0 7fe8 38c0 543e 673f 4a66 d7bf
000003d0: b678 48c0 5c13 3f3f b843 68be a166 6340
000003e0: ac67 073f 3659 143f 28e4 4e40 5819 233e
000003f0: 7dc1 863f 14ab 403f 72b2 8ebf d578 e7be

fc2.bias f4 [64]
0.39331257 -0.15021482 0.18052737 0.31010368 -0.22931898 -0.29258057 -0.2640585 0.41445312
0.34769684 -0.048962712 -0.014746492 -0.24756667 0.36834335 -0.23271737 -0.13531102 0.28189287
0.4669662 0.09800732 0.49767742 0.4532721 -0.09360483 -0.068833135 -0.062377147 0.48269165
-0.41309884 0.2515431 -0.3103401 -0.42102438 -0.07279218 0.46421975 -0.11420791 0.18955949
-0.39614618 0.47740906 0.27967468 0.74001205 -0.013596862 -0.7622326 0.5137037 0.6622818
0.22528006 0.6566524 0.08723916 -0.5873568 -0.81083196 -0.1180703 0.36647117 -0.164545
-0.17334583 0.37463766 0.37319353 -0.21670441 0.2915387 0.107268795 -0.44198024 0.5117292
0.6677945 0.18613583 0.28232002 -0.4128294 0.41051573 -0.3600027 0.43120423 0.16358073
00000000: 4460 c93e ead1 19be 2bdc 383e e9c5 9e3e
00000010: 98d2 6abe 1fcd 95be ad32 87be 3333 d43e
00000020: 5205 b23e 208d 48bd 459b 71bc 1e82 7dbe
00000030: 8097 bc3e 764d 6ebe f98e 0abe 4354 903e
00000040: 3216 ef3e 10b8 c83d 93cf fe3e 4813 e83e
00000050: e4b3 bfbd 63f8 8cbd 2e7f 7fbd 5c23 f73e
00000060: b181 d3be 42ca 803e e6e4 9ebe 8290 d7be
00000070: 1114 95bd 36ae ed3e d6e5 e9bd e21b 423e
00000080: acd3 cabe f66e f43e 8531 8f3e 6e71 3d3f
00000090: 5fc5 5ebc ad21 43bf 1682 033f 4d8b 293f
000000a0: d1af 663e 5f1a 283f 72aa b23d 045d 16bf
000000b0: af92 4fbf d7ce f1bd 1ca2 bb3e 7c7e 28be
000000c0: 9281 31be 82d0 bf3e 3913 bf3e c3e7 5dbe
000000d0: 8f44 953e beaf db3d 3c4b e2be af00 033f
000000e0: 95f4 2a3f 649a 3e3e 408c 903e 605e d3be
000000f0: 1e2f d23e 4652 b8be cdc6 dc3e b581 273e

fc3.weight f4 [4, 64]
2.3037436 0.056443397 -2.34569 2.4056754 -1.0576812 -2.6113522 -0.8439179 1.1716964
1.0994464 -0.8095243 -0.07760131 -0.8950889 -0.3779915 -0.18361513 -0.064482346 -0.3564883
0.77165276 0.09877013 0.8120016 -0.88556635 -0.0034326483 -0.22466174 0.04167369 -0.635263
-0.14863618 0.5219317 2.550307 -0.99453676 1.9601078 2.0301545 -0.9285694 -0.35895687
-0.25173154 -0.94669425 -1.035631 -1.1059558 -0.0100981 0.5766341 -1.776315 0.38920653
0.9897779 1.5947007 0.04103827 0.72096515 -0.58700794 0.05684033 -0.1599867 -0.43690228
-0.20751773 -0.5368344 0.6639865 -0.28209746 -2.2701018 1.6209102 0.013656439 -0.9726108
1.4944228 -1.1640803 -0.40896824 -1.1827549 -0.35027096 -0.26479465 -1.3182063 0.09155515
3.498281 -0.057160914 -0.9592485 2.6901283 -0.6589822 0.5521784 -0.58210194 1.1625447
0.6552831 -0.712247 0.11097235 -0.7449417 -0.41772473 -0.013105902 0.029442756 -0.39971554
1.1227959 -0.63200283 1.4953133 -1.061462 0.02159784 -0.86072564 0.00470224 -0.7375228
-0.7909426 0.7270315 1.628598 -0.6918721 0.85787135 1.8409896 -0.9543163 -0.44321266
-0.01342983 -0.93264735 -1.0086766 -1.3149611 0.025353745 -0.5955414 -1.6448356 1.0649358
1.5116115 1.160084 0.017883966 -0.9247929 -1.0859905 -0.07376185 0.12185721 -0.81531113
0.09267125 -0.5149623 -0.59646827 -0.95565623 -0.5910837 1.5787894 -1.0527055 -0.7875053
1.1859437 -0.74390346 -0.3530309 -0.80955136 -0.4272684 -1.396931 -1.6701814 -0.22145246
4.2476134 0.085043214 -1.325089 2.5124857 -1.2377703 -0.15546735 -0.8988207 0.8092422
1.7082071 -0.8997005 0.0033286544 -1.0284703 -0.43456337 -0.047769953 0.026299134 -0.37733036
1.559995 0.083596244 1.4160658 -1.0104226 -0.02534072 -0.32592475 0.095438786 -0.7880564
-0.6133683 -1.0174527 1.1790826 -0.77822876 1.7323099 1.3730713 -0.9267886 -0.3036828
-0.0049048057 -0.43975407 -1.1180604 -0.9420343 -0.053694356 -0.49506825 -1.1846888 -0.6023732
1.1615392 0.7953416 0.063234925 0.35553655 -0.030811133 0.016368052 0.39628908 -1.1835612
-0.12217398 -1.3260815 0.13171133 -1.6856226 -2.109494 1.4056252 -0.23696965 -1.4531553
1.3695267 -0.89099574 -0.43095562 -1.0102872 -0.38550085 -0.099079534 -0.5511477 -0.356691
2.4215195 -0.11435219 -2.070235 2.3850493 -1.3943338 0.13633917 -0.6742817 1.3201321
0.8092444 -0.94956666 0.113735884 -1.0845554 -0.28613418 0.06198162 0.07750163 -0.29962385
1.2999113 0.021530265 1.3391188 -1.5183617 0.011569947 -1.0201157 -0.05137245 -0.083835945
-0.708152 0.8957219 1.5209231 -0.53542423 1.6141186 2.4913023 -0.44167858 -0.2816309
0.17983738 -0.95933115 -0.55696124 -1.2770255 -0.018960318 1.987991 -2.0218863 0.035335183
0.9977802 1.0721024 0.0015385123 -1.4491303 -0.59470844 0.039346337 -1.0257176 -0.9783039
0.10006941 -0.39325255 0.7118884 -0.7947675 -1.2220436 1.4434955 -0.93297803 -0.6274766
1.2005234 -1.6755983 -0.29006782 -0.49450782 -0.29929787 -1.3723772 -0.9842345 -0.43763474
00000000: 8970 1340 3131 673d c91f 16c0 96f6 1940
00000010: 1962 87bf 6520 27c0 010b 58bf 26fa 953f
00000020: a9ba 8c3f fc3c 4fbf 70ed 9ebd 8c24 65bf
00000030: 1a88 c1be 9b05 3cbe 520f 84bd a285 b6be
00000040: 098b 453f fe47 ca3d 56df 4f3f 7ab4 62bf
00000050: 48f6 60bb ba0d 66be 08b2 2a3d 99a0 22bf
00000060: 1534 18be 519d 053f 3b38 2340 f699 7ebf
00000070: d0e4 fa3f 0dee 0140 b9b6 6dbf 32c9 b7be
00000080: f5e2 80be 8e5a 72bf 8e8f 84bf f68f 8dbf
00000090: 8072 25bc 4b9e 133f 4a5e e3bf 1446 c73e
000000a0: 1662 7d3f 271f cc3f bf17 283d 2c91 383f
000000b0: 2746 16bf 68d1 683d 8ed3 23be a8b1 dfbe
000000c0: 877f 54be fb6d 09bf 05fb 293f 146f 90be
000000d0: 5949 11c0 fc79 cf3f 42bf 5f3c 05fd 78bf
000000e0: 3f49 bf3f 9500 95bf 4964 d1be 8364 97bf
000000f0: b756 b3be 2a93 87be fcba a8bf 4481 bb3d
00000100: d6e3 5f40 9021 6abd 4f91 75bf 102b 2c40
00000110: 0fb3 28bf 905b 0d3f a204 15bf 44ce 943f
00000120: a2c0 273f d255 36bf 7945 e33d 80b4 3ebf
00000130: 04e0 d5be 23ba 56bc ef31 f13c 84a7 ccbe
00000140: c7b7 8f3f f0ca 21bf 6d66 bf3f fddd 87bf
00000150: f4ed b03c 8458 5cbf 4015 9a3b 4bce 3cbf
00000160: 377b 4abf bd1e 3a3f e675 d03f 881e 31bf
00000170: 759d 5b3f 8ca5 eb3f 134e 74bf c5ec e2be
00000180: ca08 5cbc fac1 6ebf 511c 81bf a550 a8bf
00000190: a8b2 cf3c 6775 18bf f989 d2bf d14f 883f
000001a0: 7c7c c13f a27d 943f 6581 923c 3abf 6cbf
000001b0: bd01 8bbf 7410 97bd 4690 f93d 3bb8 50bf
000001c0: 6dca bd3d 92d4 03bf 25b2 18bf e3a5 74bf
000001d0: 4351 17bf c515 ca3f 0ebf 86bf f399 49bf
000001e0: 01cd 973f 7570 3ebf 77c0 b4be c23e 4fbf
000001f0: ecc2 dabe a3ce b2bf 81c8 d5bf 6fc4 62be
00000200: 73ec 8740 232b ae3d 849c a9bf 91cc 2040
00000210: 426f 9ebf d532 1fbe 1d19 66bf 7f2a 4f3f
00000220: 88a6 da3f c652 66bf 8e25 5a3b eaa4 83bf
00000230: 177f debe 6daa 43bd 4871 d73c 7231 c1be
00000240: ebad c73f 8234 ab3d a541 b53f 8755 81bf
00000250: 5797 cfbc 9cdf a6be 6975 c33d 10be 49bf
00000260: b405 1dbf e43b 82bf 2eec 963f 003a 47bf
00000270: 55bc dd3f cdc0 af3f 0542 6dbf 507c 9bbe
00000280: 7eb8 a0bb 7227 e1be 9a1c 8fbf 2929 71bf
00000290: 9dee 5bbd 9679 fdbe e2a3 97bf 2135 1abf
000002a0: 51ad 943f 829b 4b3f 5081 813d e308 b63e
000002b0: a167 fcbc 4b16 863c 67e6 ca3e ef7e 97bf
000002c0: 5a36 fabd 0abd a9bf 56df 063e 7bc2 d7bf
000002d0: f301 07c0 87eb b33f 2ca8 72be fe00 babf
000002e0: a74c af3f 4c18 64bf 37a6 dcbe 1751 81bf
000002f0: 5e60 c5be 36ea cabd 0418 0dbf 34a0 b6be
00000300: 2dfa 1a40 7b31 eabd bb7e 04c0 a6a4 1840
00000310: 8879 b2bf 7f9c 0b3e ba9d 2cbf 17fa a83f
00000320: a42a 4f3f cd16 73bf 5cee e83d b6d2 8abf
00000330: 2e80 92be 70e0 7d3d 2db9 9e3d 4c68 99be
00000340: 7e63 a63f 3d60 b03c 3f68 ab3f ad59 c2bf
00000350: e08f 3d3c 2793 82bf eb6b 52bd 2eb2 abbd
00000360: 7349 35bf 084e 653f 9cad c23f 9011 09bf
00000370: 709b ce3f 7f71 1f40 b223 e2be ed31 90be
00000380: 4a27 383e ba96 75bf 0395 0ebf 9275 a3bf
00000390: ab52 9bbc 7d76 fe3f 9666 01c0 a0bb 103d
000003a0: 866e 7f3f a73a 893f e8a7 c93a 1a7d b9bf
000003b0: d03e 18bf a029 213d b74a 83bf 2072 7abf
000003c0: 31f1 cc3d 6658 c9be 513e 363f e275 4bbf
000003d0: ed6b 9cbf 76c4 b83f a6d7 6ebf 4ea2 20bf
000003e0: c0aa 993f 017a d6bf c583 94be 2130 fdbe
000003f0: 923d 99be 0eaa afbf cbf6 7bbf a911 e0be

fc3.bias f4 [4]
-0.13791244 -0.15028939 -0.19568416 -0.1575085
00000000: eb38 0dbe 76e5 19be 6e61 48be e949 21be
